data.pth (torch, 36095 bytes, 6 tensors)

l1.weight f4 [8, 610]
000000 ab 32 3e 3d 3b 1c 13 be 54 bb a7 bd 53 d7 72 bd
       0.04643504 -0.14366238 -0.08190027 -0.05928738
000010 2c 22 9e 3e d3 0f 77 3e db 4a 01 bf e4 dd 6a 3f
       0.30885446 0.2412713 -0.50504845 0.9174483
000020 3e 38 84 3f 13 97 b0 bd 34 5e 16 be 9a 54 03 3f
       1.0329664 -0.08622565 -0.14684373 0.51300967
000030 5f 70 ed bd 6d 63 af 3d 96 1d 8f bd 0e e5 61 be
       -0.11593699 0.08563886 -0.06988065 -0.22060034
000040 6f 26 6f 3f 75 56 0d 3e 7b cb 6c be d3 e0 f0 3e
       0.9341802 0.13802512 -0.23124497 0.47046527
000050 c2 7d 4c be ca bf 26 3e a9 4c d9 3d 16 ac 63 3f
       -0.19969848 0.16284099 0.10610325 0.8893446
000060 79 b3 ac 3d c8 01 f5 bf 31 c3 09 3f 60 5f c7 bd
       0.08432669 -1.9141169 0.53813463 -0.09734988
000070 0a 15 95 3e f1 b7 4d 3f ba 3d bf 3e 59 d0 35 3e
       0.29117614 0.803588 0.3735178 0.1775526
000080 6e c2 8a 3e a3 ef 98 3d b4 29 93 3e eb 40 16 bf
       0.27101463 0.07467582 0.28742754 -0.58692807
000090 a1 f5 7c bd ca a8 00 bf de 4a 35 be da 33 40 3d
       -0.061757687 -0.5025755 -0.17704341 0.04692445
0000a0 4e dc 0a 3f c1 32 ac 3f 6d 47 ec 3e 9a a7 00 be
       0.5424241 1.3452989 0.46148244 -0.12563935
0000b0 8e 28 51 3f 8e 6d 5e 3e 08 c6 02 3f 29 7d 1d be
       0.81702507 0.2172148 0.5108342 -0.15379776
0000c0 e2 ef 2d 3f bd ab 78 3f 5c ac cc bd 15 cd dd be
       0.6794416 0.9713705 -0.099938124 -0.43320528
0000d0 54 4c f9 bf 8a 92 81 3f c4 2a a9 be e4 9a 20 3f
       -1.9476418 1.0122845 -0.3304044 0.62736344
0000e0 af cb 4c 3f b0 b7 22 bd 45 36 07 3e 1b 48 81 3e
       0.79998296 -0.03972596 0.13204296 0.25250325
0000f0 19 0d 26 3f 41 37 c3 3e ad a8 22 be d8 3f 8c 3e
       0.64863735 0.38128093 -0.15884657 0.2739246
000100 ff f9 48 3f ce b8 7f 3e 9d eb c6 3d ad ea bf be
       0.78506464 0.24972841 0.097129084 -0.3748373
000110 db 9a 96 3e 84 74 dd be 9a 92 62 be 3c b7 4b be
       0.2941502 -0.43252957 -0.22126237 -0.19894117
000120 5f 13 24 3e 0c 07 ba 3e 0c 9e b3 bc 04 a5 d5 bd
       0.16023014 0.363335 -0.021925949 -0.10431865
000130 c1 a2 5a 3f d9 a1 cf 3e 75 7c 84 3e 1b 6c 9c 3e
       0.8540459 0.40553167 0.25876203 0.30551228
000140 95 73 45 3f 3b 69 c4 bc 6a 2e db bd 20 bc d2 3d
       0.7712949 -0.023975959 -0.10702212 0.10289788
000150 f3 75 23 be bb de c1 bd da 85 2d bf e3 d6 1e 3f
       -0.15962963 -0.094663106 -0.67782366 0.6204664
000160 ce 4e b8 3f 22 17 b2 3e 2a a6 ca 3e cd 79 ab bd
       1.4399049 0.34783274 0.39579898 -0.08372841
000170 32 91 a1 3f df bc f4 3d 6e a7 02 be 6b 28 2d 3f
       1.2622435 0.11950087 -0.12759182 0.676398
000180 d2 3e a9 3e d6 90 4c 3f 60 30 1e 3e 29 cc a3 3e
       0.3305574 0.799085 0.15448141 0.319917
000190 06 d6 9b 3d 93 58 ae 3e 22 4f d0 be e4 d5 13 be
       0.07609181 0.34051952 -0.40685374 -0.14437062
0001a0 37 28 23 3f f1 83 e0 bd 99 63 d2 3e 96 10 04 be
       0.6373324 -0.10962666 0.41091612 -0.12896952
0001b0 8f 89 88 3e 81 0c b1 3d 69 1e cb bd 3d 16 96 3e
       0.2666745 0.08644963 -0.0991791 0.2931384
0001c0 76 f1 fd bd 68 3a f5 bd 32 e1 ab 3d 92 0d 66 bb
       -0.12399571 -0.11974031 0.08392562 -0.0035103303
0001d0 92 c3 29 3d 11 00 ca 3d 4e 57 00 bd d6 a4 de 3e
       0.041446276 0.09863294 -0.03133326 0.43485135
0001e0 af 7a f8 3e 78 75 83 3e e3 70 e9 be b5 5f c8 3b
       0.485311 0.2567556 -0.45593938 0.006114925
0001f0 c1 c0 f8 bc 8b bb 65 be 0e 38 1a 3e b9 52 b1 3e
       -0.03036535 -0.22434823 0.15060446 0.34633425
000200 52 a6 64 3e ab fd a7 bc 96 6a b6 3f 14 e8 02 3f
       0.22329071 -0.0205067 1.4251277 0.51135373
000210 c9 cd c7 3d 08 8d 3e bf 4c 8b 00 bf d3 2e 53 3f
       0.09756047 -0.74433947 -0.5021255 0.82493323
000220 13 91 30 3f 35 2f 22 bd 45 c5 8f bd 1a 0c 79 be
       0.68971366 -0.0395958 -0.07020048 -0.24321023
000230 0d 74 f7 bf 78 78 45 3f 8e 85 4a be c8 43 e9 3d
       -1.9332291 0.77136946 -0.1977751 0.11389881
000240 a8 73 56 3d ed d6 98 bd 5a 7e 35 bf 27 be a5 3d
       0.052356392 -0.07462869 -0.7089592 0.08092909
000250 f9 f5 95 3d 3b 86 44 3d b0 b7 38 3d c2 49 f3 bd
       0.07322306 0.047979575 0.045097053 -0.118793026
000260 21 ed 48 3d 83 ca 8a bf d0 69 c3 3e 4e 95 0d bf
       0.04905427 -1.0843052 0.38166666 -0.55305946
000270 b0 ab 9d 3e 73 66 b5 3e 0d bf 63 3e 9d 45 fc 3e
       0.3079505 0.35429725 0.22240849 0.4927186
000280 f9 32 56 3e e0 4a b1 be 6f bd ed 3e 98 5f 25 3f
       0.20917882 -0.34627438 0.4643359 0.6459899
000290 1b f6 54 3e 1d 77 79 3f 96 e0 ae 3e 45 8f 30 3f
       0.20797007 0.9744738 0.3415572 0.6896861
0002a0 06 29 fe be e0 42 8b 3e 74 41 f8 3e 7b 70 54 be
       -0.49640673 0.2719946 0.48487437 -0.20746033
0002b0 c9 4c 84 bc 2a e0 ca 3d 8f fa a3 3e 6d e8 a2 be
       -0.016149895 0.09906037 0.320271 -0.31817952
0002c0 d9 2f 99 3e 46 89 58 be 00 3a 55 be 6a 22 45 3f
       0.29919317 -0.21146116 -0.20822906 0.77005637
0002d0 8b e8 4a 3e e2 9b b8 3e 85 9a f0 3e 8f c2 df 3e
       0.1981527 0.3605643 0.4699289 0.43703124
0002e0 f5 12 ed b9 9a 6b 5c 3f 30 ea b9 3e 4e 47 8b 3e
       -0.00045218287 0.86101687 0.36311483 0.2720284
0002f0 fe 9c 61 3e 0e 7a cd 3c c5 76 96 be b5 18 52 3d
       0.22032544 0.025082614 -0.2938749 0.051293094
000300 03 60 4c 3e 35 e2 a5 bd a1 97 18 3f 6f bc d3 bf
       0.199585 -0.08099786 0.5960637 -1.654188
000310 eb 5d b6 be 90 8b 92 3d 8e 6c 04 3f 3f eb 05 3e
       -0.3561853 0.07155526 0.5172814 0.1307802
000320 0b f6 b7 3d 24 8c 40 3f a4 50 42 be 7e 01 62 3f
       0.08982476 0.7521384 -0.18976074 0.88283527
000330 0a 3c a7 3d d6 5c c7 3e 31 42 5a 3e 7a df ca bd
       0.081657484 0.38938016 0.21314313 -0.09905906
000340 47 12 76 3e 9b c9 c1 bd 41 8f 0e 40 e9 a3 ff bd
       0.2403041 -0.09462281 2.2274935 -0.12482435
000350 98 ae 9d 3e 7e fc 70 3e f6 c1 07 bd ac cc 84 be
       0.30797267 0.23533818 -0.03314396 -0.25937402
000360 5f 2e 18 be 07 4b 01 3f 19 b4 e0 3e ce 0d e4 3e
       -0.14861439 0.5050511 0.43887404 0.44541782
000370 fe ea eb be 72 b2 9a 3e 71 01 c9 3e 82 df 82 3e
       -0.46077722 0.30214268 0.39258912 0.25561148
000380 8f 9e d5 3e 84 ef 94 3c 63 86 94 3e 46 bd 18 3f
       0.41722533 0.018180616 0.2900878 0.5966381
000390 cc 0c 80 be 81 82 96 bd 19 02 be 3e 6d 9f d1 3e
       -0.25009763 -0.073491104 0.37110975 0.40941945
0003a0 10 2b 19 be a1 b0 cf bd 54 34 1e 3f ee 9b 4b 3f
       -0.14957833 -0.10141111 0.61798596 0.79534805
0003b0 01 a4 b7 3f 88 08 3d 38 ca 29 67 3f 0e 39 7f 3e
       1.4346925 4.5069057e-05 0.9029814 0.24924108
0003c0 c1 31 31 be 26 3c 86 3e d0 49 05 3e 17 df 06 be
       -0.17304136 0.26217765 0.13016438 -0.1317104
0003d0 f7 5a e4 3d 33 cf 92 3f 8f 7e 72 3f ad 40 97 3f
       0.11150163 1.1469482 0.94724363 1.1816612
0003e0 33 45 98 3f 32 4c 20 3e 03 0d 2a 3e 96 65 6e 3e
       1.1896118 0.15654066 0.16606526 0.2328094
0003f0 9d 4b bb 3e 98 31 bb 3e 8c 54 bd be c8 61 c6 3e
       0.36581126 0.36561275 -0.36978567 0.38746476

l1.bias f4 [8]
000000 ef 64 8f 3f 1d 2c b2 3f c4 f6 84 3f 46 80 64 3f
       1.1202677 1.3919712 1.0387807 0.8925823
000010 b7 5b 87 3f 3e 7c 85 3f 30 86 d3 3f a2 d1 28 3f
       1.0574864 1.0428541 1.6525326 0.65944874

l2.weight f4 [8, 8]
000000 3c bc 13 bf a1 19 ae 3f a2 d6 f9 3f 9e da 10 3f
       -0.577091 1.3601571 1.9518626 0.56583583
000010 85 85 e5 3f 58 8f e2 3f f6 72 d8 3d 6c 0a 3f c0
       1.7931372 1.7699995 0.10568802 -2.985011
000020 da f8 cf 3f 8f 9a b4 3f 75 ea 5a bf ca c6 78 3f
       1.6247818 1.4109668 -0.85514003 0.9717833
000030 95 ed b5 3f 67 b0 f1 3f 0a bd 26 c0 0c e7 93 3f
       1.4213129 1.8881959 -2.605288 1.1554885
000040 5b 13 16 c0 9e 1e 00 40 cc 3f d3 3f 66 c6 fa bf
       -2.3449314 2.0018687 1.6503844 -1.9591796
000050 3a ab cc bc f6 53 30 40 f2 de 01 40 f7 74 09 40
       -0.024983991 2.7551246 2.0292325 2.147764
000060 19 8e 12 40 0d af db 3f 25 3f c0 bf 39 21 c0 bf
       2.289923 1.7162796 -1.501927 -1.5010139
000070 14 a9 1e 40 5a 56 37 be 52 1c cb 3f 49 99 bb be
       2.4790697 -0.17904034 1.5868018 -0.36640385
000080 29 cb 3b be 81 90 50 be f1 61 89 3e 82 ed 81 be
       -0.18339218 -0.20367624 0.26832536 -0.25376517
000090 80 10 59 3b 28 a1 be bd 09 dc 15 be 39 eb 9b be
       0.0033121407 -0.09308082 -0.14634718 -0.30452898
0000a0 0b 01 e7 3e 39 c1 26 c0 0a fa e9 3f ec 44 c7 3f
       0.45117983 -2.6055434 1.8279431 1.5567908
0000b0 95 23 c7 3f df 50 c4 3f ed 95 88 3e 45 31 f8 3f
       1.5557734 1.533718 0.26676884 1.9390036
0000c0 5c 64 ce be 83 59 28 3f cd 7f bd 3e a5 e7 c6 bd
       -0.40310943 0.65761584 0.37011567 -0.097121514
0000d0 a9 1c 76 3f 23 e3 98 bf e8 0e 62 3f 30 05 82 3f
       0.9613748 -1.1944317 0.88303995 1.0157833
0000e0 a3 3c 2a 40 08 00 9b 3f 42 0e d5 3f ff 92 5a 40
       2.659951 1.2109385 1.6644976 3.415222
0000f0 e1 14 18 c0 0d a2 b2 bf 69 50 d2 3f 8a 81 c7 3f
       -2.3762743 -1.3955704 1.6430789 1.5586407

l2.bias f4 [8]
000000 6e 8e b0 3f 23 95 8a be c6 0a 1b 3f cb 24 b8 3f
       1.3793466 -0.27066907 0.60563314 1.4386228
000010 98 1d 3a be 66 7e 36 3c 91 86 87 be 88 96 ae 3f
       -0.18175352 0.011138534 -0.26469854 1.3639688

l3.weight f4 [55, 8]
000000 be ad f4 bf 07 4f 67 c0 9d 44 c4 3e ee a8 91 bf
       -1.9115522 -3.6141984 0.38333598 -1.1379678
000010 81 b8 04 be 3f 5b 48 3f db 7c 25 3f a9 ed 36 3e
       -0.12961008 0.7826423 0.6464364 0.17864098
000020 54 b6 77 3f da ef 26 bf e2 02 98 3e d8 68 25 be
       0.96762586 -0.65209734 0.296897 -0.16153276
000030 00 fd 40 bc 3b d6 42 bf 19 94 37 bf ca 56 0f c0
       -0.01177907 -0.7610814 -0.71710354 -2.2396722
000040 73 d5 20 3f a5 66 0e c0 d8 56 45 3f 97 51 70 bd
       0.628257 -2.225015 0.7708564 -0.05867156
000050 c8 90 48 3d fb a7 06 c0 6c 53 e2 be 77 2e 24 bf
       0.0489662 -2.1040027 -0.4420427 -0.641334
000060 fc cf 17 bf 85 b5 d6 be 92 60 0e 3f af cb 77 bf
       -0.59301734 -0.41935363 0.55616105 -0.9679517
000070 92 d0 52 3e 25 c9 0d 3f 87 0f ba bc ff 14 db bf
       0.20587376 0.5538505 -0.022712482 -1.7115782
000080 91 4a a7 3d 93 7a 87 bf f9 94 98 3e fb 4b 20 be
       0.08168519 -1.0584282 0.29801157 -0.15653984
000090 b2 cc 02 3e 88 a4 15 bf 7e b6 46 3f 36 cc 35 bf
       0.12773398 -0.5845418 0.7762221 -0.71014726
0000a0 97 46 97 bd 16 1a 88 be 11 90 27 3e 0f 73 dc be
       -0.07386511 -0.26582402 0.1636355 -0.43056533
0000b0 46 f9 a3 be 29 9c 83 bd 9e 4f 58 bf e2 1d 9b be
       -0.32026118 -0.064262696 -0.84496486 -0.30296236
0000c0 c7 78 b5 3e 28 a3 73 3e 62 2b 8c 3c 2e 4d 69 c0
       0.35443708 0.23792708 0.01711053 -3.6453357
0000d0 aa b4 62 3e ec e2 eb bd 67 f7 4b c0 56 1c 7f 3d
       0.2213923 -0.11517891 -3.1869752 0.062282883
0000e0 55 2b 22 be 4f 49 b4 bf bb 3d a6 3e 76 a9 80 c0
       -0.15836842 -1.4084872 0.32468972 -4.020686
0000f0 90 75 c9 3d 24 6b 97 be 87 6b 99 be 90 8f 3c 3f
       0.098368764 -0.2957393 -0.2996485 0.7365656
000100 3c 6d 39 3f c8 de 87 c0 94 68 0d bd ae 68 a0 be
       0.72432303 -4.245945 -0.03452356 -0.31329864
000110 e8 2d e9 3d c5 28 20 c0 f6 d5 ed bc 90 76 0b 3f
       0.11385709 -2.5024884 -0.029032689 0.54477787
000120 5f 89 31 bf ed 46 06 3f dd 07 c8 bf 48 cd bf 3e
       -0.69350237 0.52451974 -1.56274 0.37461305
000130 3e 7a 75 3e e2 69 e7 bf 9b 5d 8c be 67 dd b0 3e
       0.23972413 -1.8079188 -0.27415165 0.34543917
000140 31 af ad 3d 21 42 36 c0 d9 d9 ac be 11 88 45 bc
       0.08480681 -2.8477862 -0.33759955 -0.012056367
000150 90 f2 8b bc 23 9c 2b 3e 8f db 1b bf 68 16 ff 3d
       -0.017083436 0.1675878 -0.60881895 0.124554455
000160 e9 f1 86 bd 67 3b 0c 3f 27 2a 39 bf 21 e5 c5 3e
       -0.065891095 0.5477814 -0.72329944 0.38651374
000170 61 fb 85 3e dc 6d 1d 3e d2 f9 0d c0 1a 04 33 c0
       0.2616835 0.1537394 -2.2183728 -2.7971253
000180 74 31 e7 bf ff d0 e5 be ba 41 7e be e5 6f 53 c0
       -1.8061967 -0.44886014 -0.2482976 -3.3037045
000190 89 31 b4 be 87 50 e0 3e d7 ac 1a bf f8 ec 44 3f
       -0.35194042 0.43811437 -0.6041998 0.76924086
0001a0 8d a5 59 c0 83 a5 df be 25 10 74 3e 5c e2 93 be
       -3.4007294 -0.43680963 0.23834284 -0.28883636
0001b0 c0 51 cc bc 9c 7b 2e c0 a0 20 d9 3d 62 ab 64 3f
       -0.024941325 -2.7262945 0.10601926 0.8932401
0001c0 51 2b 35 3f db 36 39 3f 9e a1 ca 3d 09 b5 4e be
       0.7076922 0.7234933 0.09894107 -0.20186247
0001d0 03 82 52 be 74 45 1f c0 ae d8 85 bf ad 53 29 c0
       -0.20557408 -2.488614 -1.045675 -2.6457322
0001e0 52 7f 78 bf 1b 15 4f 3f 10 3b c8 3e b5 ac ec 3c
       -0.97069275 0.8089158 0.3910756 0.028890947
0001f0 96 4c 97 be 70 8b 36 c0 0a c8 39 be f9 fe 96 bf
       -0.29550618 -2.8522606 -0.18142715 -1.1796561
000200 4a 3c 61 3e 13 7f 31 3d fe 55 fc bd 83 13 d5 3d
       0.21995655 0.043334078 -0.12321089 0.10404112
000210 20 02 b5 bd 38 e6 e8 bf b4 7b 89 be 70 2b cb be
       -0.08838296 -1.8195257 -0.2685219 -0.39681578
000220 2c 7a d3 bf 80 6d 14 3f 18 dd 0b 3e f1 e1 f1 be
       -1.6521659 0.57979584 0.1365856 -0.47242692
000230 45 ea a5 3e 2a 3c ee be 64 a4 ee be 40 c7 23 3e
       0.32405296 -0.46530277 -0.46609795 0.15993977
000240 7f 1a 1a 3e 27 96 1b 3f 23 65 3f 3f ee aa b8 bf
       0.1504917 0.6077599 0.747637 -1.4427164
000250 60 e2 0b 3e 4a 36 2d bf 7f da 5d be 6c a6 01 c0
       0.13660574 -0.67660964 -0.21665381 -2.0257826
000260 5b 92 de bf 82 b5 38 c0 a9 70 73 3e c5 a2 f7 3e
       -1.7388414 -2.8860784 0.23773445 0.4836637
000270 70 4c 31 3d df 53 72 bf 82 c1 a0 3e 42 b5 0e 3e
       0.043285787 -0.9465923 0.31397635 0.13936332
000280 19 0b 74 be 2d 2e 0e c0 6e 20 46 3f 04 cb ba bf
       -0.23832358 -2.2215683 0.77393234 -1.4593205
000290 06 1b 47 3e 67 12 07 3f 86 be 2c be 87 2f 47 be
       0.19443902 0.52762455 -0.16869554 -0.19451724
0002a0 68 c9 1c 3f 38 80 29 bf ed 1d b7 bf cd e9 1e 3f
       0.6124482 -0.6621127 -1.4306008 0.620755
0002b0 c0 0c a1 3c 9f 87 9f 3d 6c 0c 39 c0 b6 fa c0 be
       0.0196594 0.077895395 -2.8913832 -0.37691277
0002c0 78 a4 db be 49 4a ec be 61 72 db 3c f4 e1 16 bf
       -0.42898917 -0.46150425 0.026787939 -0.5893853
0002d0 7a 70 b0 be 30 7e b7 bf 08 47 1c bf f1 f9 50 3f
       -0.34460813 -1.4335384 -0.61045885 0.8163138
0002e0 67 1c c5 bf af 3a 84 b9 36 07 6c bf 10 c0 38 3f
       -1.5399293 -0.00025220725 -0.92198503 0.72168064
0002f0 b8 f9 2a 3d 14 4e ad be 1d 51 72 3e 3c df 0d bf
       0.041742057 -0.3384863 0.23663755 -0.55418754
000300 da 84 33 3f 6f a3 35 bf 4f 48 28 3f 6d 5c aa bf
       0.7012459 -0.70952505 0.65735334 -1.3309456
000310 02 40 35 3e 7c 48 84 3d 84 84 23 c0 dd 0f 3e bf
       0.17700198 0.06459138 -2.554963 -0.74242955
000320 ee 09 52 c0 16 7f f5 be 97 27 aa 3e 5e 93 82 3d
       -3.281856 -0.4794852 0.3323333 0.06375764
000330 50 3a 8b 3d 66 3b 6d be 16 76 53 3c d7 29 d8 3d
       0.067982316 -0.2316719 0.012906572 0.10554855
000340 f0 4d 6c c0 dd 26 31 bf c1 af 4c be 02 fb a7 bf
       -3.692257 -0.69199926 -0.1998892 -1.3123477
000350 08 d1 d5 3d 84 5c de 3e 2a 47 15 3e 30 04 10 3f
       0.1044026 0.4342996 0.14577928 0.5625639
000360 7c 0c d6 3e 09 dd 9a c0 28 88 34 3f 29 05 0a c0
       0.418064 -4.839482 0.7052026 -2.156565
000370 01 ed 9b 3e 7e 9f f9 be 50 50 cf 3d c3 54 c6 3e
       0.30454257 -0.48754495 0.1012274 0.38736543
000380 4e 32 b9 3e a7 92 d5 3e e6 9d c2 3e a2 78 61 bf
       0.36171192 0.4171345 0.38011092 -0.88074696
000390 82 8c 30 3e 8e ff 97 bf c3 10 31 c0 ae cb 60 be
       0.172411 -1.1874864 -2.766648 -0.21952698
0003a0 7f 12 f5 3e 82 b6 4c bf cb d5 88 be 38 85 3a 3f
       0.47865674 -0.79965985 -0.2672561 0.72859526
0003b0 3e 62 7e 3e 82 3e 87 c0 aa 04 5f 3e 3d 3b 75 bf
       0.24842164 -4.2263803 0.21779123 -0.95793515
0003c0 5e 4a 0a bf 50 b6 d3 bf e9 4f 50 3e 1d 7d 8f 3e
       -0.54019725 -1.6540012 0.20342983 0.2802514
0003d0 3a 1b 06 3e d2 73 8f c0 89 a5 06 3c c8 cc d7 3e
       0.13096324 -4.482888 0.008218178 0.42148423
0003e0 5e ea ae bf 6b 49 fd be 62 66 4c 3f 4b 65 a9 3c
       -1.3665273 -0.49470076 0.79843724 0.020678183
0003f0 f8 8d 0e 3e f2 f5 d1 bf ec ce 19 3e 67 b4 b9 be
       0.13921344 -1.6403182 0.1502034 -0.3627045

l3.bias f4 [55]
000000 6a 33 be 3d 2c 4c c6 3d 86 89 8f 3e 34 4e b7 be
       0.0928715 0.096824974 0.2803461 -0.35801852
000010 0e d5 4e bd 67 0a 37 bd 95 ee 5f be 0f c7 e1 bc
       -0.050496154 -0.044687655 -0.21868356 -0.027560739
000020 5b 88 aa 3e f3 a4 31 bf 9b fa 0a 3e 14 ee 08 bd
       0.33307156 -0.6939232 0.13572161 -0.033430174
000030 06 33 d7 3d 9e 3e 5b 3e 9c 6b 6a be 1c 35 6e 3e
       0.10507779 0.21410605 -0.22892612 0.23262447
000040 aa 9c 4d be 6f 5d f2 bd 55 7f 00 bf e2 d4 87 be
       -0.20079294 -0.11834227 -0.50194293 -0.26529604
000050 b3 25 cd 3e 5d d5 7d 3f 37 43 b5 3f 51 ca 1c 3e
       0.40067825 0.9915369 1.4161137 0.15311553
000060 bd 5a c3 3e 49 66 81 be 50 79 fc 3d c1 a0 df 3e
       0.38155165 -0.2527335 0.12327826 0.43677333
000070 a0 40 0a bf 1b 8d 82 bd 96 ee 89 3e bb 88 2e be
       -0.5400486 -0.0637457 0.2693984 -0.17044346
000080 8b b8 1e be fd 9d 75 3f 98 8c 8d 3f e2 8a 47 bf
       -0.15500085 0.95944196 1.1058531 -0.77946293
000090 c8 52 b6 be 1a b7 b6 be 59 b0 94 bd 7d d3 42 be
       -0.35610032 -0.3568657 -0.07260198 -0.19025989
0000a0 88 b8 9d be 8e c8 b4 be 16 b1 23 3d d7 aa 38 bf
       -0.3080485 -0.3530926 0.039963804 -0.7213568
0000b0 19 e3 f0 be d8 b8 a2 be 1a 1f f8 bd d1 7c 4b 3e
       -0.47048262 -0.3178165 -0.12115307 0.19871832
0000c0 b2 eb 67 bf 41 6b 1d bd d5 da 80 3e 35 3b 85 3d
       -0.9059402 -0.038432363 0.25166956 0.065054335
0000d0 01 23 14 be 86 f5 6a be 2d 1f 35 bf
       -0.14466478 -0.22945222 -0.70750695
